MLP/trained_model.pth (torch, 2903 bytes, 6 tensors)

layers.0.weight f4 [10, 4]
00000000: d546 813e 8d5e e9be a92c 84be 55a5 2c3d
00000010: 7823 f2bd 3088 503e eacb fa3e e2b1 ccbe
00000020: 84ab 9bbd 6153 143f 6cf1 123e 3194 b23e
00000030: 3799 0b3f 8f05 91be fa3e 06be 3270 a03e
00000040: 0852 91be dabe c3be 089e 5bbe 484f 5bbe
00000050: 7cd8 04be ecf2 453e 2eb8 b1be c4a8 95be
00000060: 5124 6bbe 1e25 e7be 44dc a83e dc90 143e
00000070: 692e 98be d6a3 71be 7d89 a83a 9266 fb3d
00000080: ad87 153e 5bc5 b6be ad93 b5bd b263 833e
00000090: e0b2 d2be 4efc abbe a078 853c 2e8e dbbe
0.25249353 -0.4557995 -0.25815323 0.04214986 -0.118231714 0.20364451 0.489837 -0.39979464
-0.076010734 0.57939726 0.14349908 0.34878686 0.5453066 -0.28324553 -0.13109961 0.31335598
-0.28382897 -0.38231546 -0.21447003 -0.21416962 -0.12973207 0.19330949 -0.3471083 -0.2923032
-0.22963072 -0.45145506 0.3298055 0.14508384 -0.29722908 -0.23597655 0.0012858358 0.12275423
0.14602537 -0.35697445 -0.088660575 0.25662 -0.41152096 -0.3359093 0.01629287 -0.42881912

layers.0.bias f4 [10]
00000000: 1556 94bd 30df 933d 0b54 f1be dc95 9a3c
00000010: 8481 4dbe e858 a3bd cc71 1f3e 8b85 c03e
00000020: 89ae cbbe cc84 823e
-0.07242981 0.07220304 -0.47134432 0.018870287 -0.20068938 -0.07975942 0.15570754 0.37601885
-0.39781597 0.2549194

layers.2.weight f4 [10, 10]
00000000: 69cc b73e 61dd 46be 4725 8d3d 9855 cdbd
00000010: f090 92bd 0038 993d ed18 1cbe 2829 fbbd
00000020: 4bca 3b3d dad4 593e ee3f 92bd ae52 d5bd
00000030: e4b6 a0bc 3bb7 863d d893 673d a8df 0b3d
00000040: b1a4 003e 1aae 333e 02c6 87be a837 25bd
00000050: 081b bcbd 1436 353e 95c8 3bbe adf5 383e
00000060: 02f1 7b3e 5a6e 9fbd d9de b6bd eec8 673e
00000070: 7995 acbe 564c 10be fba7 433e 8ea5 b0bd
00000080: 9196 f93d 6e54 b8bd 9098 9abe 18e4 3b3e
00000090: f23a 10be c888 3cbe 195f 273e 1157 03be
000000a0: 6eb0 c0be 6af8 a0be 0a2e e03d e398 0fbe
000000b0: 3c4d f23d f0dc 21bd 5531 26bd 93a3 a63d
000000c0: 6c52 0abc 64d3 72be 2d90 8f3e a0c7 cb3c
000000d0: f2c6 003e f9cf 6d3e 4aea 1e3e 1bd7 8c3e
000000e0: 2ba2 883c 982f 10bd 78cd 76be 5e82 5a3e
000000f0: f61e 4a3e f0fc 8f3d 2065 dc3d 23fc 153e
00000100: b861 043d f21b 69be 5f35 6b3e 7359 28bd
00000110: d203 8cbe dabd 433e cda7 643e ed17 39be
00000120: f007 d83d 759f 58be df20 3bbe 0eff 0dbe
00000130: 2381 69be 3218 11be 421c 2e3e 8bf8 9c3e
00000140: f1de 433e 65b6 09be b8a1 debd 2f6e 42be
00000150: 6aad debd 8e09 81be 58d8 b43e 846f 38bd
00000160: 1e44 973d b866 3dbe 56be 5d3e 904a ba3c
00000170: 5fb4 db3d 19a5 83be 007a 7b3d f8bd 49bd
00000180: c40a 76be 396c 803e ce27 88be f3a1 78be
0.3589814 -0.19420387 0.06891876 -0.10026091 -0.07156551 0.07481384 -0.15243883 -0.12263709
0.04584722 0.21272603 -0.071411 -0.104161605 -0.019618459 0.06577917 0.05653748 0.034148842
0.12562825 0.17546883 -0.26518255 -0.04033628 -0.09184843 0.1769641 -0.18338235 0.18062468
0.24603656 -0.0778472 -0.089292236 0.22635242 -0.3370779 -0.1409162 0.19107048 -0.08625327
0.121869214 -0.09000479 -0.3019452 0.1834873 -0.14084986 -0.18411553 0.1634487 -0.12826182
-0.37634605 -0.31439525 0.10946281 -0.14023165 0.118311375 -0.039517343 -0.04057439 0.08136668
-0.0084425025 -0.23713452 0.28039685 0.024875462 0.12575892 0.23223867 0.15519062 0.27507862
0.01667889 -0.03520164 -0.24101818 0.21338794 0.19738373 0.07030666 0.107614756 0.14646964
0.032319754 -0.22764567 0.22969578 -0.04110093 -0.27346665 0.19115391 0.22329636 -0.18075533
0.10548389 -0.21154578 -0.18274258 -0.13866827 -0.22803168 -0.14169386 0.17002967 0.30658373
0.19128014 -0.13448484 -0.10870689 -0.18987344 -0.1087292 -0.25202602 0.35321307 -0.045028225
0.07386039 -0.18496215 0.21654639 0.022740632 0.107277624 -0.25711897 0.061395645 -0.049253434
-0.24027544 0.25082567 -0.2659287 -0.24280529

layers.2.bias f4 [10]
00000000: 4648 bd3b 3214 463e 47de 1fbe 58a1 a0bb
00000010: 357a 503e 2812 c8bd 2dfa c8be b104 6e3d
00000020: c30d 143f 8d87 b4bd
0.005776438 0.19343641 -0.15612136 -0.004902046 0.20359118 -0.09769088 -0.3925337 0.058109943
0.578335 -0.08814917

layers.4.weight f4 [4, 10]
00000000: 3a82 fc3d 1fc0 fe3c 1ec5 e73c f8fd 48be
00000010: 9fdf 98be 236b 133e 8f24 b03b 83ad 783e
00000020: 0780 25be a689 183e 189d 7bbe 277e 1c3c
00000030: ec7e cdbe a7cc 31bd 098e 213e d922 aa3d
00000040: 991b 653e 1e29 a03d 7d37 b73d c35c 05be
00000050: 0777 05bf 3e61 1abe 9f28 493e 8f7e 6f3e
00000060: 155f b53d 12ee edbc 8ef0 c13d 1607 a4be
00000070: 6478 ffbe 6c36 15bd 37ef d63e 274d d93e
00000080: a572 0abe 28f9 77be a45c 643e 0cd6 883d
00000090: 9f4e 113e e089 e13c 8d1d b83e aad7 f3bd
0.12329526 0.03109747 0.028292235 -0.19628131 -0.2985811 0.14396338 0.005375452 0.2428494
-0.1616212 0.14896259 -0.24571645 0.009551561 -0.40135896 -0.043408062 0.15776838 0.08307428
0.22373809 0.078203425 0.089461304 -0.13023667 -0.52134746 -0.15076157 0.19644402 0.23388122
0.08856026 -0.029044185 0.0946971 -0.32036656 -0.49896538 -0.036428854 0.4197938 0.42441675
-0.13520296 -0.2421614 0.22300965 0.06681451 0.14190148 0.027531564 0.35960045 -0.11906369

layers.4.bias f4 [4]
00000000: 8244 143e cdf0 80be 9138 0cbe 945c 87bd
0.14479259 -0.25183716 -0.13693453 -0.06609455
